…
+     layer_dense(units = 64, activation = "relu") %>%
+     layer_dropout(rate = 0.25) %>%
+     layer_flatten(input_shape = c(32,32,3)) %>%
+     layer_dense(units = 10, activation = 'softmax')
> model %>% compile(
+     loss = "categorical_crossentropy",
+     optimizer = optimizer_adam(),
+     metrics = "accuracy"
+ )
> summary(model)
Model: "sequential"
_________________________________________________________________________
 Layer (type)                   Output Shape                  Param #    
=========================================================================
 dense_3 (Dense)                (None, 32, 32, 256)           1024       
 dropout_2 (Dropout)            (None, 32, 32, 256)           0          
 dense_2 (Dense)                (None, 32, 32, 128)           32896      
 dropout_1 (Dropout)            (None, 32, 32, 128)           0          
 dense_1 (Dense)                (None, 32, 32, 64)            8256       
 dropout (Dropout)              (None, 32, 32, 64)            0          
 flatten (Flatten)              (None, 65536)                 0          
 dense (Dense)                  (None, 10)                    655370     
=========================================================================
Total params: 697546 (2.66 MB)
Trainable params: 697546 (2.66 MB)
Non-trainable params: 0 (0.00 Byte)
_________________________________________________________________________
> history <- model %>%
+     fit(X_train, y_train, epochs = 10, batch_size = 32,
+         validation_data = list(X_test,y_test), shuffle=TRUE)
…
